…
	model.add(Dense(1, activation='sigmoid'))
	# compile model
	opt = Adam(lr=0.0002, beta_1=0.5)
	model.compile(loss='binary_crossentropy', optimizer=opt, metrics=['accuracy'])
	return model

# define model
model = define_discriminator()
# summarize the model
model.summary()
# plot the model
plot_model(model, to_file='discriminator_plot.png', show_shapes=True, show_layer_names=True)
_________________________________________________________________
Layer (type)                 Output Shape              Param #
=================================================================
conv2d_1 (Conv2D)            (None, 32, 32, 64)        1792
_________________________________________________________________
leaky_re_lu_1 (LeakyReLU)    (None, 32, 32, 64)        0
_________________________________________________________________
conv2d_2 (Conv2D)            (None, 16, 16, 128)       73856
_________________________________________________________________
leaky_re_lu_2 (LeakyReLU)    (None, 16, 16, 128)       0
_________________________________________________________________
conv2d_3 (Conv2D)            (None, 8, 8, 128)         147584
_________________________________________________________________
leaky_re_lu_3 (LeakyReLU)    (None, 8, 8, 128)         0
_________________________________________________________________
conv2d_4 (Conv2D)            (None, 4, 4, 256)         295168
_________________________________________________________________
leaky_re_lu_4 (LeakyReLU)    (None, 4, 4, 256)         0
_________________________________________________________________
flatten_1 (Flatten)          (None, 4096)              0
_________________________________________________________________
dropout_1 (Dropout)          (None, 4096)              0
_________________________________________________________________
dense_1 (Dense)              (None, 1)                 4097
=================================================================
Total params: 522,497
Trainable params: 522,497
Non-trainable params: 0
_________________________________________________________________

# load cifar10 dataset
(trainX, _), (_, _) = load_data()

# convert from unsigned ints to floats
X = trainX.astype('float32')
# scale from [0,255] to [-1,1]
X = (X - 127.5) / 127.5
# load and prepare cifar10 training images
…
	model.add(LeakyReLU(alpha=0.2))
	# output layer
	model.add(Conv2D(3, (3,3), activation='tanh', padding='same'))
	return model

# define the size of the latent space
latent_dim = 100
# define the generator model
model = define_generator(latent_dim)
# summarize the model
model.summary()
# plot the model
plot_model(model, to_file='generator_plot.png', show_shapes=True, show_layer_names=True)
_________________________________________________________________
Layer (type)                 Output Shape              Param #
=================================================================
dense_1 (Dense)              (None, 4096)              413696
_________________________________________________________________
leaky_re_lu_1 (LeakyReLU)    (None, 4096)              0
_________________________________________________________________
reshape_1 (Reshape)          (None, 4, 4, 256)         0
_________________________________________________________________
conv2d_transpose_1 (Conv2DTr (None, 8, 8, 128)         524416
_________________________________________________________________
leaky_re_lu_2 (LeakyReLU)    (None, 8, 8, 128)         0
_________________________________________________________________
conv2d_transpose_2 (Conv2DTr (None, 16, 16, 128)       262272
_________________________________________________________________
leaky_re_lu_3 (LeakyReLU)    (None, 16, 16, 128)       0
_________________________________________________________________
conv2d_transpose_3 (Conv2DTr (None, 32, 32, 128)       262272
_________________________________________________________________
leaky_re_lu_4 (LeakyReLU)    (None, 32, 32, 128)       0
_________________________________________________________________
conv2d_1 (Conv2D)            (None, 32, 32, 3)         3459
=================================================================
Total params: 1,466,115
Trainable params: 1,466,115
Non-trainable params: 0
_________________________________________________________________
# generate points in latent space as input for the generator
def generate_latent_points(latent_dim, n_samples):
	# generate points in the latent space
	x_input = randn(latent_dim * n_samples)
…
