…
	model.add(Dense(1, activation='sigmoid'))
	# compile model
	opt = Adam(lr=0.0002, beta_1=0.5)
	model.compile(loss='binary_crossentropy', optimizer=opt, metrics=['accuracy'])
	return model

# define model
model = define_discriminator()
# summarize the model
model.summary()
# plot the model
plot_model(model, to_file='discriminator_plot.png', show_shapes=True, show_layer_names=True)
_________________________________________________________________
Layer (type)                 Output Shape              Param #
=================================================================
conv2d_1 (Conv2D)            (None, 14, 14, 64)        640
_________________________________________________________________
leaky_re_lu_1 (LeakyReLU)    (None, 14, 14, 64)        0
_________________________________________________________________
dropout_1 (Dropout)          (None, 14, 14, 64)        0
_________________________________________________________________
conv2d_2 (Conv2D)            (None, 7, 7, 64)          36928
_________________________________________________________________
leaky_re_lu_2 (LeakyReLU)    (None, 7, 7, 64)          0
_________________________________________________________________
dropout_2 (Dropout)          (None, 7, 7, 64)          0
_________________________________________________________________
flatten_1 (Flatten)          (None, 3136)              0
_________________________________________________________________
dense_1 (Dense)              (None, 1)                 3137
=================================================================
Total params: 40,705
Trainable params: 40,705
Non-trainable params: 0
_________________________________________________________________
# load mnist dataset
(trainX, _), (_, _) = load_data()
# expand to 3d, e.g. add channels dimension
X = expand_dims(trainX, axis=-1)
# convert from unsigned ints to floats
X = X.astype('float32')
# scale from [0,255] to [0,1]
…
	model.add(LeakyReLU(alpha=0.2))
	model.add(Conv2D(1, (7,7), activation='sigmoid', padding='same'))
	return model

# define the size of the latent space
latent_dim = 100
# define the generator model
model = define_generator(latent_dim)
# summarize the model
model.summary()
# plot the model
plot_model(model, to_file='generator_plot.png', show_shapes=True, show_layer_names=True)
_________________________________________________________________
Layer (type)                 Output Shape              Param #
=================================================================
dense_1 (Dense)              (None, 6272)              633472
_________________________________________________________________
leaky_re_lu_1 (LeakyReLU)    (None, 6272)              0
_________________________________________________________________
reshape_1 (Reshape)          (None, 7, 7, 128)         0
_________________________________________________________________
conv2d_transpose_1 (Conv2DTr (None, 14, 14, 128)       262272
_________________________________________________________________
leaky_re_lu_2 (LeakyReLU)    (None, 14, 14, 128)       0
_________________________________________________________________
conv2d_transpose_2 (Conv2DTr (None, 28, 28, 128)       262272
_________________________________________________________________
leaky_re_lu_3 (LeakyReLU)    (None, 28, 28, 128)       0
_________________________________________________________________
conv2d_1 (Conv2D)            (None, 28, 28, 1)         6273
=================================================================
Total params: 1,164,289
Trainable params: 1,164,289
Non-trainable params: 0
_________________________________________________________________
# generate points in latent space as input for the generator
def generate_latent_points(latent_dim, n_samples):
	# generate points in the latent space
	x_input = randn(latent_dim * n_samples)
…
