…
trainX = encode_text(tokenizer, trainLines, length)
print(trainX.shape)

# define model
model = define_model(length, vocab_size)
# fit model
model.fit([trainX,trainX,trainX], array(trainLabels), epochs=10, batch_size=16)
# save the model
model.save('model.h5')
Max document length: 1380
Vocabulary size: 44277
(1800, 1380)
____________________________________________________________________________________________________
Layer (type)                     Output Shape          Param #     Connected to
====================================================================================================
input_1 (InputLayer)             (None, 1380)          0
____________________________________________________________________________________________________
input_2 (InputLayer)             (None, 1380)          0
____________________________________________________________________________________________________
input_3 (InputLayer)             (None, 1380)          0
____________________________________________________________________________________________________
embedding_1 (Embedding)          (None, 1380, 100)     4427700     input_1[0][0]
____________________________________________________________________________________________________
embedding_2 (Embedding)          (None, 1380, 100)     4427700     input_2[0][0]
____________________________________________________________________________________________________
embedding_3 (Embedding)          (None, 1380, 100)     4427700     input_3[0][0]
____________________________________________________________________________________________________
conv1d_1 (Conv1D)                (None, 1377, 32)      12832       embedding_1[0][0]
____________________________________________________________________________________________________
conv1d_2 (Conv1D)                (None, 1375, 32)      19232       embedding_2[0][0]
____________________________________________________________________________________________________
conv1d_3 (Conv1D)                (None, 1373, 32)      25632       embedding_3[0][0]
____________________________________________________________________________________________________
dropout_1 (Dropout)              (None, 1377, 32)      0           conv1d_1[0][0]
____________________________________________________________________________________________________
dropout_2 (Dropout)              (None, 1375, 32)      0           conv1d_2[0][0]
____________________________________________________________________________________________________
dropout_3 (Dropout)              (None, 1373, 32)      0           conv1d_3[0][0]
____________________________________________________________________________________________________
max_pooling1d_1 (MaxPooling1D)   (None, 688, 32)       0           dropout_1[0][0]
____________________________________________________________________________________________________
max_pooling1d_2 (MaxPooling1D)   (None, 687, 32)       0           dropout_2[0][0]
____________________________________________________________________________________________________
max_pooling1d_3 (MaxPooling1D)   (None, 686, 32)       0           dropout_3[0][0]
____________________________________________________________________________________________________
flatten_1 (Flatten)              (None, 22016)         0           max_pooling1d_1[0][0]
____________________________________________________________________________________________________
flatten_2 (Flatten)              (None, 21984)         0           max_pooling1d_2[0][0]
____________________________________________________________________________________________________
flatten_3 (Flatten)              (None, 21952)         0           max_pooling1d_3[0][0]
____________________________________________________________________________________________________
concatenate_1 (Concatenate)      (None, 65952)         0           flatten_1[0][0]
                                                                   flatten_2[0][0]
                                                                   flatten_3[0][0]
____________________________________________________________________________________________________
dense_1 (Dense)                  (None, 10)            659530      concatenate_1[0][0]
____________________________________________________________________________________________________
dense_2 (Dense)                  (None, 1)             11          dense_1[0][0]
====================================================================================================
Total params: 14,000,337
Trainable params: 14,000,337
Non-trainable params: 0
____________________________________________________________________________________________________

Epoch 6/10
1800/1800 [==============================] - 30s - loss: 9.9093e-04 - acc: 1.0000
Epoch 7/10
…
