…
	outputs = Dense(vocab_size, activation='softmax')(lm3)
	# tie it together [image, seq] [word]
	model = Model(inputs=[inputs1, inputs2], outputs=outputs)
	model.compile(loss='categorical_crossentropy', optimizer='adam', metrics=['accuracy'])
	print(model.summary())
	plot_model(model, show_shapes=True, to_file='plot.png')
	return model
____________________________________________________________________________________________________
Layer (type)                     Output Shape          Param #     Connected to
====================================================================================================
input_1 (InputLayer)             (None, 7, 7, 512)     0
____________________________________________________________________________________________________
input_2 (InputLayer)             (None, 25)            0
____________________________________________________________________________________________________
global_max_pooling2d_1 (GlobalMa (None, 512)           0           input_1[0][0]
____________________________________________________________________________________________________
embedding_1 (Embedding)          (None, 25, 50)        18300       input_2[0][0]
____________________________________________________________________________________________________
dense_1 (Dense)                  (None, 128)           65664       global_max_pooling2d_1[0][0]
____________________________________________________________________________________________________
lstm_1 (LSTM)                    (None, 25, 256)       314368      embedding_1[0][0]
____________________________________________________________________________________________________
repeat_vector_1 (RepeatVector)   (None, 25, 128)       0           dense_1[0][0]
____________________________________________________________________________________________________
time_distributed_1 (TimeDistribu (None, 25, 128)       32896       lstm_1[0][0]
____________________________________________________________________________________________________
concatenate_1 (Concatenate)      (None, 25, 256)       0           repeat_vector_1[0][0]
                                                                   time_distributed_1[0][0]
____________________________________________________________________________________________________
lstm_2 (LSTM)                    (None, 500)           1514000     concatenate_1[0][0]
____________________________________________________________________________________________________
dense_3 (Dense)                  (None, 500)           250500      lstm_2[0][0]
____________________________________________________________________________________________________
dense_4 (Dense)                  (None, 366)           183366      dense_3[0][0]
====================================================================================================
Total params: 2,379,094
Trainable params: 2,379,094
Non-trainable params: 0
____________________________________________________________________________________________________
# data generator, intended to be used in a call to model.fit_generator()
def data_generator(descriptions, features, tokenizer, max_length, n_step):
…
