…
	model.compile(loss='binary_crossentropy', optimizer=opt, loss_weights=[0.5])
	return model

# define image shape
image_shape = (256,256,3)
# create the model
model = define_discriminator(image_shape)
# summarize the model
model.summary()
# plot the model
plot_model(model, to_file='discriminator_model_plot.png', show_shapes=True, show_layer_names=True)
__________________________________________________________________________________________________
Layer (type)                    Output Shape         Param #     Connected to
==================================================================================================
input_1 (InputLayer)            (None, 256, 256, 3)  0
__________________________________________________________________________________________________
input_2 (InputLayer)            (None, 256, 256, 3)  0
__________________________________________________________________________________________________
concatenate_1 (Concatenate)     (None, 256, 256, 6)  0           input_1[0][0]
                                                                 input_2[0][0]
__________________________________________________________________________________________________
conv2d_1 (Conv2D)               (None, 128, 128, 64) 6208        concatenate_1[0][0]
__________________________________________________________________________________________________
leaky_re_lu_1 (LeakyReLU)       (None, 128, 128, 64) 0           conv2d_1[0][0]
__________________________________________________________________________________________________
conv2d_2 (Conv2D)               (None, 64, 64, 128)  131200      leaky_re_lu_1[0][0]
__________________________________________________________________________________________________
batch_normalization_1 (BatchNor (None, 64, 64, 128)  512         conv2d_2[0][0]
__________________________________________________________________________________________________
leaky_re_lu_2 (LeakyReLU)       (None, 64, 64, 128)  0           batch_normalization_1[0][0]
__________________________________________________________________________________________________
conv2d_3 (Conv2D)               (None, 32, 32, 256)  524544      leaky_re_lu_2[0][0]
__________________________________________________________________________________________________
batch_normalization_2 (BatchNor (None, 32, 32, 256)  1024        conv2d_3[0][0]
__________________________________________________________________________________________________
leaky_re_lu_3 (LeakyReLU)       (None, 32, 32, 256)  0           batch_normalization_2[0][0]
__________________________________________________________________________________________________
conv2d_4 (Conv2D)               (None, 16, 16, 512)  2097664     leaky_re_lu_3[0][0]
__________________________________________________________________________________________________
batch_normalization_3 (BatchNor (None, 16, 16, 512)  2048        conv2d_4[0][0]
__________________________________________________________________________________________________
leaky_re_lu_4 (LeakyReLU)       (None, 16, 16, 512)  0           batch_normalization_3[0][0]
__________________________________________________________________________________________________
conv2d_5 (Conv2D)               (None, 16, 16, 512)  4194816     leaky_re_lu_4[0][0]
__________________________________________________________________________________________________
batch_normalization_4 (BatchNor (None, 16, 16, 512)  2048        conv2d_5[0][0]
__________________________________________________________________________________________________
leaky_re_lu_5 (LeakyReLU)       (None, 16, 16, 512)  0           batch_normalization_4[0][0]
__________________________________________________________________________________________________
conv2d_6 (Conv2D)               (None, 16, 16, 1)    8193        leaky_re_lu_5[0][0]
__________________________________________________________________________________________________
activation_1 (Activation)       (None, 16, 16, 1)    0           conv2d_6[0][0]
==================================================================================================
Total params: 6,968,257
Trainable params: 6,965,441
Non-trainable params: 2,816
__________________________________________________________________________________________________

g = Dropout(0.5)(g, training=True)
# example of defining a u-net encoder-decoder generator model
…
	model = Model(in_image, out_image)
	return model

# define image shape
image_shape = (256,256,3)
# create the model
model = define_generator(image_shape)
# summarize the model
model.summary()
# plot the model
plot_model(model, to_file='generator_model_plot.png', show_shapes=True, show_layer_names=True)
__________________________________________________________________________________________________
Layer (type)                    Output Shape         Param #     Connected to
==================================================================================================
input_1 (InputLayer)            (None, 256, 256, 3)  0
__________________________________________________________________________________________________
conv2d_1 (Conv2D)               (None, 128, 128, 64) 3136        input_1[0][0]
__________________________________________________________________________________________________
leaky_re_lu_1 (LeakyReLU)       (None, 128, 128, 64) 0           conv2d_1[0][0]
__________________________________________________________________________________________________
conv2d_2 (Conv2D)               (None, 64, 64, 128)  131200      leaky_re_lu_1[0][0]
__________________________________________________________________________________________________
batch_normalization_1 (BatchNor (None, 64, 64, 128)  512         conv2d_2[0][0]
__________________________________________________________________________________________________
leaky_re_lu_2 (LeakyReLU)       (None, 64, 64, 128)  0           batch_normalization_1[0][0]
__________________________________________________________________________________________________
conv2d_3 (Conv2D)               (None, 32, 32, 256)  524544      leaky_re_lu_2[0][0]
__________________________________________________________________________________________________
batch_normalization_2 (BatchNor (None, 32, 32, 256)  1024        conv2d_3[0][0]
__________________________________________________________________________________________________
leaky_re_lu_3 (LeakyReLU)       (None, 32, 32, 256)  0           batch_normalization_2[0][0]
__________________________________________________________________________________________________
conv2d_4 (Conv2D)               (None, 16, 16, 512)  2097664     leaky_re_lu_3[0][0]
__________________________________________________________________________________________________
batch_normalization_3 (BatchNor (None, 16, 16, 512)  2048        conv2d_4[0][0]
__________________________________________________________________________________________________
leaky_re_lu_4 (LeakyReLU)       (None, 16, 16, 512)  0           batch_normalization_3[0][0]
__________________________________________________________________________________________________
conv2d_5 (Conv2D)               (None, 8, 8, 512)    4194816     leaky_re_lu_4[0][0]
__________________________________________________________________________________________________
batch_normalization_4 (BatchNor (None, 8, 8, 512)    2048        conv2d_5[0][0]
__________________________________________________________________________________________________
leaky_re_lu_5 (LeakyReLU)       (None, 8, 8, 512)    0           batch_normalization_4[0][0]
__________________________________________________________________________________________________
conv2d_6 (Conv2D)               (None, 4, 4, 512)    4194816     leaky_re_lu_5[0][0]
__________________________________________________________________________________________________
batch_normalization_5 (BatchNor (None, 4, 4, 512)    2048        conv2d_6[0][0]
__________________________________________________________________________________________________
leaky_re_lu_6 (LeakyReLU)       (None, 4, 4, 512)    0           batch_normalization_5[0][0]
__________________________________________________________________________________________________
conv2d_7 (Conv2D)               (None, 2, 2, 512)    4194816     leaky_re_lu_6[0][0]
__________________________________________________________________________________________________
batch_normalization_6 (BatchNor (None, 2, 2, 512)    2048        conv2d_7[0][0]
__________________________________________________________________________________________________
leaky_re_lu_7 (LeakyReLU)       (None, 2, 2, 512)    0           batch_normalization_6[0][0]
__________________________________________________________________________________________________
conv2d_8 (Conv2D)               (None, 1, 1, 512)    4194816     leaky_re_lu_7[0][0]
__________________________________________________________________________________________________
activation_1 (Activation)       (None, 1, 1, 512)    0           conv2d_8[0][0]
__________________________________________________________________________________________________
conv2d_transpose_1 (Conv2DTrans (None, 2, 2, 512)    4194816     activation_1[0][0]
__________________________________________________________________________________________________
batch_normalization_7 (BatchNor (None, 2, 2, 512)    2048        conv2d_transpose_1[0][0]
__________________________________________________________________________________________________
dropout_1 (Dropout)             (None, 2, 2, 512)    0           batch_normalization_7[0][0]
__________________________________________________________________________________________________
concatenate_1 (Concatenate)     (None, 2, 2, 1024)   0           dropout_1[0][0]
                                                                 leaky_re_lu_7[0][0]
__________________________________________________________________________________________________
activation_2 (Activation)       (None, 2, 2, 1024)   0           concatenate_1[0][0]
__________________________________________________________________________________________________
conv2d_transpose_2 (Conv2DTrans (None, 4, 4, 512)    8389120     activation_2[0][0]
__________________________________________________________________________________________________
batch_normalization_8 (BatchNor (None, 4, 4, 512)    2048        conv2d_transpose_2[0][0]
__________________________________________________________________________________________________
dropout_2 (Dropout)             (None, 4, 4, 512)    0           batch_normalization_8[0][0]
__________________________________________________________________________________________________
concatenate_2 (Concatenate)     (None, 4, 4, 1024)   0           dropout_2[0][0]
                                                                 leaky_re_lu_6[0][0]
__________________________________________________________________________________________________
activation_3 (Activation)       (None, 4, 4, 1024)   0           concatenate_2[0][0]
__________________________________________________________________________________________________
conv2d_transpose_3 (Conv2DTrans (None, 8, 8, 512)    8389120     activation_3[0][0]
__________________________________________________________________________________________________
batch_normalization_9 (BatchNor (None, 8, 8, 512)    2048        conv2d_transpose_3[0][0]
__________________________________________________________________________________________________
dropout_3 (Dropout)             (None, 8, 8, 512)    0           batch_normalization_9[0][0]
__________________________________________________________________________________________________
concatenate_3 (Concatenate)     (None, 8, 8, 1024)   0           dropout_3[0][0]
                                                                 leaky_re_lu_5[0][0]
__________________________________________________________________________________________________
activation_4 (Activation)       (None, 8, 8, 1024)   0           concatenate_3[0][0]
__________________________________________________________________________________________________
conv2d_transpose_4 (Conv2DTrans (None, 16, 16, 512)  8389120     activation_4[0][0]
__________________________________________________________________________________________________
batch_normalization_10 (BatchNo (None, 16, 16, 512)  2048        conv2d_transpose_4[0][0]
__________________________________________________________________________________________________
concatenate_4 (Concatenate)     (None, 16, 16, 1024) 0           batch_normalization_10[0][0]
                                                                 leaky_re_lu_4[0][0]
__________________________________________________________________________________________________
activation_5 (Activation)       (None, 16, 16, 1024) 0           concatenate_4[0][0]
__________________________________________________________________________________________________
conv2d_transpose_5 (Conv2DTrans (None, 32, 32, 256)  4194560     activation_5[0][0]
__________________________________________________________________________________________________
batch_normalization_11 (BatchNo (None, 32, 32, 256)  1024        conv2d_transpose_5[0][0]
__________________________________________________________________________________________________
concatenate_5 (Concatenate)     (None, 32, 32, 512)  0           batch_normalization_11[0][0]
                                                                 leaky_re_lu_3[0][0]
__________________________________________________________________________________________________
activation_6 (Activation)       (None, 32, 32, 512)  0           concatenate_5[0][0]
__________________________________________________________________________________________________
conv2d_transpose_6 (Conv2DTrans (None, 64, 64, 128)  1048704     activation_6[0][0]
__________________________________________________________________________________________________
batch_normalization_12 (BatchNo (None, 64, 64, 128)  512         conv2d_transpose_6[0][0]
__________________________________________________________________________________________________
concatenate_6 (Concatenate)     (None, 64, 64, 256)  0           batch_normalization_12[0][0]
                                                                 leaky_re_lu_2[0][0]
__________________________________________________________________________________________________
activation_7 (Activation)       (None, 64, 64, 256)  0           concatenate_6[0][0]
__________________________________________________________________________________________________
conv2d_transpose_7 (Conv2DTrans (None, 128, 128, 64) 262208      activation_7[0][0]
__________________________________________________________________________________________________
batch_normalization_13 (BatchNo (None, 128, 128, 64) 256         conv2d_transpose_7[0][0]
__________________________________________________________________________________________________
concatenate_7 (Concatenate)     (None, 128, 128, 128 0           batch_normalization_13[0][0]
                                                                 leaky_re_lu_1[0][0]
__________________________________________________________________________________________________
activation_8 (Activation)       (None, 128, 128, 128 0           concatenate_7[0][0]
__________________________________________________________________________________________________
conv2d_transpose_8 (Conv2DTrans (None, 256, 256, 3)  6147        activation_8[0][0]
__________________________________________________________________________________________________
activation_9 (Activation)       (None, 256, 256, 3)  0           conv2d_transpose_8[0][0]
==================================================================================================
Total params: 54,429,315
Trainable params: 54,419,459
Non-trainable params: 9,856
__________________________________________________________________________________________________
# define the combined generator and discriminator model, for updating the generator
def define_gan(g_model, d_model, image_shape):
…
