…
        Conv2D(n_filters[0], kernel_size=(1, n_features), activation="relu"),
        Conv2D(n_filters[1], kernel_size=(3,1), activation="relu"),
        MaxPool2D(pool_size=(2,1)),
        Conv2D(n_filters[2], kernel_size=(3,1), activation="relu"),
        MaxPool2D(pool_size=(2,1)),
        Flatten(),
        Dropout(droprate),
        Dense(1, activation="sigmoid")
    ])
    return model
Model: "sequential"
_________________________________________________________________
Layer (type)                 Output Shape              Param #
=================================================================
conv2d (Conv2D)              (None, 60, 1, 8)          664
_________________________________________________________________
conv2d_1 (Conv2D)            (None, 58, 1, 8)          200
_________________________________________________________________
max_pooling2d (MaxPooling2D) (None, 29, 1, 8)          0
_________________________________________________________________
conv2d_2 (Conv2D)            (None, 27, 1, 8)          200
_________________________________________________________________
max_pooling2d_1 (MaxPooling2 (None, 13, 1, 8)          0
_________________________________________________________________
flatten (Flatten)            (None, 104)               0
_________________________________________________________________
dropout (Dropout)            (None, 104)               0
_________________________________________________________________
dense (Dense)                (None, 1)                 105
=================================================================
Total params: 1,169
Trainable params: 1,169
Non-trainable params: 0
from tensorflow.keras import backend as K

def recall_m(y_true, y_pred):
    true_positives = K.sum(K.round(K.clip(y_true * y_pred, 0, 1)))
    possible_positives = K.sum(K.round(K.clip(y_true, 0, 1)))
    recall = true_positives / (possible_positives + K.epsilon())
…
