…
		models = add_discriminator_block(old_model)
		# store model
		model_list.append(models)
	return model_list

# define models
discriminators = define_discriminator(3)
# spot check
m = discriminators[2][1]
m.summary()
plot_model(m, to_file='discriminator_plot.png', show_shapes=True, show_layer_names=True)
__________________________________________________________________________________________________
Layer (type)                    Output Shape         Param #     Connected to
==================================================================================================
input_3 (InputLayer)            (None, 16, 16, 3)    0
__________________________________________________________________________________________________
conv2d_7 (Conv2D)               (None, 16, 16, 64)   256         input_3[0][0]
__________________________________________________________________________________________________
leaky_re_lu_7 (LeakyReLU)       (None, 16, 16, 64)   0           conv2d_7[0][0]
__________________________________________________________________________________________________
conv2d_8 (Conv2D)               (None, 16, 16, 64)   36928       leaky_re_lu_7[0][0]
__________________________________________________________________________________________________
batch_normalization_5 (BatchNor (None, 16, 16, 64)   256         conv2d_8[0][0]
__________________________________________________________________________________________________
leaky_re_lu_8 (LeakyReLU)       (None, 16, 16, 64)   0           batch_normalization_5[0][0]
__________________________________________________________________________________________________
conv2d_9 (Conv2D)               (None, 16, 16, 64)   36928       leaky_re_lu_8[0][0]
__________________________________________________________________________________________________
average_pooling2d_4 (AveragePoo (None, 8, 8, 3)      0           input_3[0][0]
__________________________________________________________________________________________________
batch_normalization_6 (BatchNor (None, 16, 16, 64)   256         conv2d_9[0][0]
__________________________________________________________________________________________________
conv2d_4 (Conv2D)               (None, 8, 8, 64)     256         average_pooling2d_4[0][0]
__________________________________________________________________________________________________
leaky_re_lu_9 (LeakyReLU)       (None, 16, 16, 64)   0           batch_normalization_6[0][0]
__________________________________________________________________________________________________
leaky_re_lu_4 (LeakyReLU)       (None, 8, 8, 64)     0           conv2d_4[1][0]
__________________________________________________________________________________________________
average_pooling2d_3 (AveragePoo (None, 8, 8, 64)     0           leaky_re_lu_9[0][0]
__________________________________________________________________________________________________
weighted_sum_2 (WeightedSum)    (None, 8, 8, 64)     0           leaky_re_lu_4[1][0]
                                                                 average_pooling2d_3[0][0]
__________________________________________________________________________________________________
conv2d_5 (Conv2D)               (None, 8, 8, 64)     36928       weighted_sum_2[0][0]
__________________________________________________________________________________________________
batch_normalization_3 (BatchNor (None, 8, 8, 64)     256         conv2d_5[2][0]
__________________________________________________________________________________________________
leaky_re_lu_5 (LeakyReLU)       (None, 8, 8, 64)     0           batch_normalization_3[2][0]
__________________________________________________________________________________________________
conv2d_6 (Conv2D)               (None, 8, 8, 64)     36928       leaky_re_lu_5[2][0]
__________________________________________________________________________________________________
batch_normalization_4 (BatchNor (None, 8, 8, 64)     256         conv2d_6[2][0]
__________________________________________________________________________________________________
leaky_re_lu_6 (LeakyReLU)       (None, 8, 8, 64)     0           batch_normalization_4[2][0]
__________________________________________________________________________________________________
average_pooling2d_1 (AveragePoo (None, 4, 4, 64)     0           leaky_re_lu_6[2][0]
__________________________________________________________________________________________________
conv2d_2 (Conv2D)               (None, 4, 4, 128)    73856       average_pooling2d_1[2][0]
__________________________________________________________________________________________________
batch_normalization_1 (BatchNor (None, 4, 4, 128)    512         conv2d_2[4][0]
__________________________________________________________________________________________________
leaky_re_lu_2 (LeakyReLU)       (None, 4, 4, 128)    0           batch_normalization_1[4][0]
__________________________________________________________________________________________________
conv2d_3 (Conv2D)               (None, 4, 4, 128)    262272      leaky_re_lu_2[4][0]
__________________________________________________________________________________________________
batch_normalization_2 (BatchNor (None, 4, 4, 128)    512         conv2d_3[4][0]
__________________________________________________________________________________________________
leaky_re_lu_3 (LeakyReLU)       (None, 4, 4, 128)    0           batch_normalization_2[4][0]
__________________________________________________________________________________________________
flatten_1 (Flatten)             (None, 2048)         0           leaky_re_lu_3[4][0]
__________________________________________________________________________________________________
dense_1 (Dense)                 (None, 1)            2049        flatten_1[4][0]
==================================================================================================
Total params: 488,449
Trainable params: 487,425
Non-trainable params: 1,024
__________________________________________________________________________________________________

# base model latent input
in_latent = Input(shape=(100,))
# linear scale up to activation maps
g  = Dense(128 * 4 * 4, kernel_initializer='he_normal')(in_latent)
…
		# create new model for next resolution
		models = add_generator_block(old_model)
		# store model
		model_list.append(models)
	return model_list

# define models
generators = define_generator(100, 3)
# spot check
m = generators[2][1]
m.summary()
plot_model(m, to_file='generator_plot.png', show_shapes=True, show_layer_names=True)
__________________________________________________________________________________________________
Layer (type)                    Output Shape         Param #     Connected to
==================================================================================================
input_1 (InputLayer)            (None, 100)          0
__________________________________________________________________________________________________
dense_1 (Dense)                 (None, 2048)         206848      input_1[0][0]
__________________________________________________________________________________________________
reshape_1 (Reshape)             (None, 4, 4, 128)    0           dense_1[0][0]
__________________________________________________________________________________________________
conv2d_1 (Conv2D)               (None, 4, 4, 128)    147584      reshape_1[0][0]
__________________________________________________________________________________________________
batch_normalization_1 (BatchNor (None, 4, 4, 128)    512         conv2d_1[0][0]
__________________________________________________________________________________________________
leaky_re_lu_1 (LeakyReLU)       (None, 4, 4, 128)    0           batch_normalization_1[0][0]
__________________________________________________________________________________________________
conv2d_2 (Conv2D)               (None, 4, 4, 128)    147584      leaky_re_lu_1[0][0]
__________________________________________________________________________________________________
batch_normalization_2 (BatchNor (None, 4, 4, 128)    512         conv2d_2[0][0]
__________________________________________________________________________________________________
leaky_re_lu_2 (LeakyReLU)       (None, 4, 4, 128)    0           batch_normalization_2[0][0]
__________________________________________________________________________________________________
up_sampling2d_1 (UpSampling2D)  (None, 8, 8, 128)    0           leaky_re_lu_2[0][0]
__________________________________________________________________________________________________
conv2d_4 (Conv2D)               (None, 8, 8, 64)     73792       up_sampling2d_1[0][0]
__________________________________________________________________________________________________
batch_normalization_3 (BatchNor (None, 8, 8, 64)     256         conv2d_4[0][0]
__________________________________________________________________________________________________
leaky_re_lu_3 (LeakyReLU)       (None, 8, 8, 64)     0           batch_normalization_3[0][0]
__________________________________________________________________________________________________
conv2d_5 (Conv2D)               (None, 8, 8, 64)     36928       leaky_re_lu_3[0][0]
__________________________________________________________________________________________________
batch_normalization_4 (BatchNor (None, 8, 8, 64)     256         conv2d_5[0][0]
__________________________________________________________________________________________________
leaky_re_lu_4 (LeakyReLU)       (None, 8, 8, 64)     0           batch_normalization_4[0][0]
__________________________________________________________________________________________________
up_sampling2d_2 (UpSampling2D)  (None, 16, 16, 64)   0           leaky_re_lu_4[0][0]
__________________________________________________________________________________________________
conv2d_7 (Conv2D)               (None, 16, 16, 64)   36928       up_sampling2d_2[0][0]
__________________________________________________________________________________________________
batch_normalization_5 (BatchNor (None, 16, 16, 64)   256         conv2d_7[0][0]
__________________________________________________________________________________________________
leaky_re_lu_5 (LeakyReLU)       (None, 16, 16, 64)   0           batch_normalization_5[0][0]
__________________________________________________________________________________________________
conv2d_8 (Conv2D)               (None, 16, 16, 64)   36928       leaky_re_lu_5[0][0]
__________________________________________________________________________________________________
batch_normalization_6 (BatchNor (None, 16, 16, 64)   256         conv2d_8[0][0]
__________________________________________________________________________________________________
leaky_re_lu_6 (LeakyReLU)       (None, 16, 16, 64)   0           batch_normalization_6[0][0]
__________________________________________________________________________________________________
conv2d_6 (Conv2D)               multiple             195         up_sampling2d_2[0][0]
__________________________________________________________________________________________________
conv2d_9 (Conv2D)               (None, 16, 16, 3)    195         leaky_re_lu_6[0][0]
__________________________________________________________________________________________________
weighted_sum_2 (WeightedSum)    (None, 16, 16, 3)    0           conv2d_6[1][0]
                                                                 conv2d_9[0][0]
==================================================================================================
Total params: 689,030
Trainable params: 688,006
Non-trainable params: 1,024
__________________________________________________________________________________________________

g_models, d_models = generators[0], discriminators[0]
…
