…
	# compile model
	model.compile(loss='mse', optimizer=Adam(lr=0.0002, beta_1=0.5), loss_weights=[0.5])
	return model

# define image shape
image_shape = (256,256,3)
# create the model
model = define_discriminator(image_shape)
# summarize the model
model.summary()
# plot the model
plot_model(model, to_file='discriminator_model_plot.png', show_shapes=True, show_layer_names=True)
_________________________________________________________________
Layer (type)                 Output Shape              Param #
=================================================================
input_1 (InputLayer)         (None, 256, 256, 3)       0
_________________________________________________________________
conv2d_1 (Conv2D)            (None, 128, 128, 64)      3136
_________________________________________________________________
leaky_re_lu_1 (LeakyReLU)    (None, 128, 128, 64)      0
_________________________________________________________________
conv2d_2 (Conv2D)            (None, 64, 64, 128)       131200
_________________________________________________________________
instance_normalization_1 (In (None, 64, 64, 128)       256
_________________________________________________________________
leaky_re_lu_2 (LeakyReLU)    (None, 64, 64, 128)       0
_________________________________________________________________
conv2d_3 (Conv2D)            (None, 32, 32, 256)       524544
_________________________________________________________________
instance_normalization_2 (In (None, 32, 32, 256)       512
_________________________________________________________________
leaky_re_lu_3 (LeakyReLU)    (None, 32, 32, 256)       0
_________________________________________________________________
conv2d_4 (Conv2D)            (None, 16, 16, 512)       2097664
_________________________________________________________________
instance_normalization_3 (In (None, 16, 16, 512)       1024
_________________________________________________________________
leaky_re_lu_4 (LeakyReLU)    (None, 16, 16, 512)       0
_________________________________________________________________
conv2d_5 (Conv2D)            (None, 16, 16, 512)       4194816
_________________________________________________________________
instance_normalization_4 (In (None, 16, 16, 512)       1024
_________________________________________________________________
leaky_re_lu_5 (LeakyReLU)    (None, 16, 16, 512)       0
_________________________________________________________________
conv2d_6 (Conv2D)            (None, 16, 16, 1)         8193
=================================================================
Total params: 6,962,369
Trainable params: 6,962,369
Non-trainable params: 0
_________________________________________________________________
# generator a resnet block
def resnet_block(n_filters, input_layer):
	# weight initialization
	init = RandomNormal(stddev=0.02)
	# first layer convolutional layer
	g = Conv2D(n_filters, (3,3), padding='same', kernel_initializer=init)(input_layer)
…
	out_image = Activation('tanh')(g)
	# define model
	model = Model(in_image, out_image)
	return model

# create the model
model = define_generator()
# summarize the model
model.summary()
# plot the model
plot_model(model, to_file='generator_model_plot.png', show_shapes=True, show_layer_names=True)
__________________________________________________________________________________________________
Layer (type)                    Output Shape         Param #     Connected to
==================================================================================================
input_1 (InputLayer)            (None, 256, 256, 3)  0
__________________________________________________________________________________________________
conv2d_1 (Conv2D)               (None, 256, 256, 64) 9472        input_1[0][0]
__________________________________________________________________________________________________
instance_normalization_1 (Insta (None, 256, 256, 64) 128         conv2d_1[0][0]
__________________________________________________________________________________________________
activation_1 (Activation)       (None, 256, 256, 64) 0           instance_normalization_1[0][0]
__________________________________________________________________________________________________
conv2d_2 (Conv2D)               (None, 128, 128, 128 73856       activation_1[0][0]
__________________________________________________________________________________________________
instance_normalization_2 (Insta (None, 128, 128, 128 256         conv2d_2[0][0]
__________________________________________________________________________________________________
activation_2 (Activation)       (None, 128, 128, 128 0           instance_normalization_2[0][0]
__________________________________________________________________________________________________
conv2d_3 (Conv2D)               (None, 64, 64, 256)  295168      activation_2[0][0]
__________________________________________________________________________________________________
instance_normalization_3 (Insta (None, 64, 64, 256)  512         conv2d_3[0][0]
__________________________________________________________________________________________________
activation_3 (Activation)       (None, 64, 64, 256)  0           instance_normalization_3[0][0]
__________________________________________________________________________________________________
conv2d_4 (Conv2D)               (None, 64, 64, 256)  590080      activation_3[0][0]
__________________________________________________________________________________________________
instance_normalization_4 (Insta (None, 64, 64, 256)  512         conv2d_4[0][0]
__________________________________________________________________________________________________
activation_4 (Activation)       (None, 64, 64, 256)  0           instance_normalization_4[0][0]
__________________________________________________________________________________________________
conv2d_5 (Conv2D)               (None, 64, 64, 256)  590080      activation_4[0][0]
__________________________________________________________________________________________________
instance_normalization_5 (Insta (None, 64, 64, 256)  512         conv2d_5[0][0]
__________________________________________________________________________________________________
concatenate_1 (Concatenate)     (None, 64, 64, 512)  0           instance_normalization_5[0][0]
                                                                 activation_3[0][0]
__________________________________________________________________________________________________
conv2d_6 (Conv2D)               (None, 64, 64, 256)  1179904     concatenate_1[0][0]
__________________________________________________________________________________________________
instance_normalization_6 (Insta (None, 64, 64, 256)  512         conv2d_6[0][0]
__________________________________________________________________________________________________
activation_5 (Activation)       (None, 64, 64, 256)  0           instance_normalization_6[0][0]
__________________________________________________________________________________________________
conv2d_7 (Conv2D)               (None, 64, 64, 256)  590080      activation_5[0][0]
__________________________________________________________________________________________________
instance_normalization_7 (Insta (None, 64, 64, 256)  512         conv2d_7[0][0]
__________________________________________________________________________________________________
concatenate_2 (Concatenate)     (None, 64, 64, 768)  0           instance_normalization_7[0][0]
                                                                 concatenate_1[0][0]
__________________________________________________________________________________________________
conv2d_8 (Conv2D)               (None, 64, 64, 256)  1769728     concatenate_2[0][0]
__________________________________________________________________________________________________
instance_normalization_8 (Insta (None, 64, 64, 256)  512         conv2d_8[0][0]
__________________________________________________________________________________________________
activation_6 (Activation)       (None, 64, 64, 256)  0           instance_normalization_8[0][0]
__________________________________________________________________________________________________
conv2d_9 (Conv2D)               (None, 64, 64, 256)  590080      activation_6[0][0]
__________________________________________________________________________________________________
instance_normalization_9 (Insta (None, 64, 64, 256)  512         conv2d_9[0][0]
__________________________________________________________________________________________________
concatenate_3 (Concatenate)     (None, 64, 64, 1024) 0           instance_normalization_9[0][0]
                                                                 concatenate_2[0][0]
__________________________________________________________________________________________________
conv2d_10 (Conv2D)              (None, 64, 64, 256)  2359552     concatenate_3[0][0]
__________________________________________________________________________________________________
instance_normalization_10 (Inst (None, 64, 64, 256)  512         conv2d_10[0][0]
__________________________________________________________________________________________________
activation_7 (Activation)       (None, 64, 64, 256)  0           instance_normalization_10[0][0]
__________________________________________________________________________________________________
conv2d_11 (Conv2D)              (None, 64, 64, 256)  590080      activation_7[0][0]
__________________________________________________________________________________________________
instance_normalization_11 (Inst (None, 64, 64, 256)  512         conv2d_11[0][0]
__________________________________________________________________________________________________
concatenate_4 (Concatenate)     (None, 64, 64, 1280) 0           instance_normalization_11[0][0]
                                                                 concatenate_3[0][0]
__________________________________________________________________________________________________
conv2d_12 (Conv2D)              (None, 64, 64, 256)  2949376     concatenate_4[0][0]
__________________________________________________________________________________________________
instance_normalization_12 (Inst (None, 64, 64, 256)  512         conv2d_12[0][0]
__________________________________________________________________________________________________
activation_8 (Activation)       (None, 64, 64, 256)  0           instance_normalization_12[0][0]
__________________________________________________________________________________________________
conv2d_13 (Conv2D)              (None, 64, 64, 256)  590080      activation_8[0][0]
__________________________________________________________________________________________________
instance_normalization_13 (Inst (None, 64, 64, 256)  512         conv2d_13[0][0]
__________________________________________________________________________________________________
concatenate_5 (Concatenate)     (None, 64, 64, 1536) 0           instance_normalization_13[0][0]
                                                                 concatenate_4[0][0]
__________________________________________________________________________________________________
conv2d_14 (Conv2D)              (None, 64, 64, 256)  3539200     concatenate_5[0][0]
__________________________________________________________________________________________________
instance_normalization_14 (Inst (None, 64, 64, 256)  512         conv2d_14[0][0]
__________________________________________________________________________________________________
activation_9 (Activation)       (None, 64, 64, 256)  0           instance_normalization_14[0][0]
__________________________________________________________________________________________________
conv2d_15 (Conv2D)              (None, 64, 64, 256)  590080      activation_9[0][0]
__________________________________________________________________________________________________
instance_normalization_15 (Inst (None, 64, 64, 256)  512         conv2d_15[0][0]
__________________________________________________________________________________________________
concatenate_6 (Concatenate)     (None, 64, 64, 1792) 0           instance_normalization_15[0][0]
                                                                 concatenate_5[0][0]
__________________________________________________________________________________________________
conv2d_16 (Conv2D)              (None, 64, 64, 256)  4129024     concatenate_6[0][0]
__________________________________________________________________________________________________
instance_normalization_16 (Inst (None, 64, 64, 256)  512         conv2d_16[0][0]
__________________________________________________________________________________________________
activation_10 (Activation)      (None, 64, 64, 256)  0           instance_normalization_16[0][0]
__________________________________________________________________________________________________
conv2d_17 (Conv2D)              (None, 64, 64, 256)  590080      activation_10[0][0]
__________________________________________________________________________________________________
instance_normalization_17 (Inst (None, 64, 64, 256)  512         conv2d_17[0][0]
__________________________________________________________________________________________________
concatenate_7 (Concatenate)     (None, 64, 64, 2048) 0           instance_normalization_17[0][0]
                                                                 concatenate_6[0][0]
__________________________________________________________________________________________________
conv2d_18 (Conv2D)              (None, 64, 64, 256)  4718848     concatenate_7[0][0]
__________________________________________________________________________________________________
instance_normalization_18 (Inst (None, 64, 64, 256)  512         conv2d_18[0][0]
__________________________________________________________________________________________________
activation_11 (Activation)      (None, 64, 64, 256)  0           instance_normalization_18[0][0]
__________________________________________________________________________________________________
conv2d_19 (Conv2D)              (None, 64, 64, 256)  590080      activation_11[0][0]
__________________________________________________________________________________________________
instance_normalization_19 (Inst (None, 64, 64, 256)  512         conv2d_19[0][0]
__________________________________________________________________________________________________
concatenate_8 (Concatenate)     (None, 64, 64, 2304) 0           instance_normalization_19[0][0]
                                                                 concatenate_7[0][0]
__________________________________________________________________________________________________
conv2d_20 (Conv2D)              (None, 64, 64, 256)  5308672     concatenate_8[0][0]
__________________________________________________________________________________________________
instance_normalization_20 (Inst (None, 64, 64, 256)  512         conv2d_20[0][0]
__________________________________________________________________________________________________
activation_12 (Activation)      (None, 64, 64, 256)  0           instance_normalization_20[0][0]
__________________________________________________________________________________________________
conv2d_21 (Conv2D)              (None, 64, 64, 256)  590080      activation_12[0][0]
__________________________________________________________________________________________________
instance_normalization_21 (Inst (None, 64, 64, 256)  512         conv2d_21[0][0]
__________________________________________________________________________________________________
concatenate_9 (Concatenate)     (None, 64, 64, 2560) 0           instance_normalization_21[0][0]
                                                                 concatenate_8[0][0]
__________________________________________________________________________________________________
conv2d_transpose_1 (Conv2DTrans (None, 128, 128, 128 2949248     concatenate_9[0][0]
__________________________________________________________________________________________________
instance_normalization_22 (Inst (None, 128, 128, 128 256         conv2d_transpose_1[0][0]
__________________________________________________________________________________________________
activation_13 (Activation)      (None, 128, 128, 128 0           instance_normalization_22[0][0]
__________________________________________________________________________________________________
conv2d_transpose_2 (Conv2DTrans (None, 256, 256, 64) 73792       activation_13[0][0]
__________________________________________________________________________________________________
instance_normalization_23 (Inst (None, 256, 256, 64) 128         conv2d_transpose_2[0][0]
__________________________________________________________________________________________________
activation_14 (Activation)      (None, 256, 256, 64) 0           instance_normalization_23[0][0]
__________________________________________________________________________________________________
conv2d_22 (Conv2D)              (None, 256, 256, 3)  9411        activation_14[0][0]
__________________________________________________________________________________________________
instance_normalization_24 (Inst (None, 256, 256, 3)  6           conv2d_22[0][0]
__________________________________________________________________________________________________
activation_15 (Activation)      (None, 256, 256, 3)  0           instance_normalization_24[0][0]
==================================================================================================
Total params: 35,276,553
Trainable params: 35,276,553
Non-trainable params: 0
__________________________________________________________________________________________________

# input shape
image_shape = (256,256,3)
# generator: A -> B
g_model_AtoB = define_generator(image_shape)
…
