…
visible = Input(shape=(10,))
hidden1 = Dense(10, activation='relu')(visible)
hidden2 = Dense(20, activation='relu')(hidden1)
hidden3 = Dense(10, activation='relu')(hidden2)
output = Dense(1, activation='sigmoid')(hidden3)
model = Model(inputs=visible, outputs=output)
# summarize layers
print(model.summary())
# plot graph
plot_model(model, to_file='multilayer_perceptron_graph.png')
_________________________________________________________________
Layer (type)                 Output Shape              Param #
=================================================================
input_1 (InputLayer)         (None, 10)                0
_________________________________________________________________
dense_1 (Dense)              (None, 10)                110
_________________________________________________________________
dense_2 (Dense)              (None, 20)                220
_________________________________________________________________
dense_3 (Dense)              (None, 10)                210
_________________________________________________________________
dense_4 (Dense)              (None, 1)                 11
=================================================================
Total params: 551
Trainable params: 551
Non-trainable params: 0
_________________________________________________________________
# Convolutional Neural Network
from keras.utils import plot_model
from keras.models import Model
from keras.layers import Input
from keras.layers import Dense
from keras.layers import Flatten
from keras.layers.convolutional import Conv2D
…
conv2 = Conv2D(16, kernel_size=4, activation='relu')(pool1)
pool2 = MaxPooling2D(pool_size=(2, 2))(conv2)
flat = Flatten()(pool2)
hidden1 = Dense(10, activation='relu')(flat)
output = Dense(1, activation='sigmoid')(hidden1)
model = Model(inputs=visible, outputs=output)
# summarize layers
print(model.summary())
# plot graph
plot_model(model, to_file='convolutional_neural_network.png')
_________________________________________________________________
Layer (type)                 Output Shape              Param #   
=================================================================
input_1 (InputLayer)         (None, 64, 64, 1)         0         
_________________________________________________________________
conv2d_1 (Conv2D)            (None, 61, 61, 32)        544       
_________________________________________________________________
max_pooling2d_1 (MaxPooling2 (None, 30, 30, 32)        0         
_________________________________________________________________
conv2d_2 (Conv2D)            (None, 27, 27, 16)        8208      
_________________________________________________________________
max_pooling2d_2 (MaxPooling2 (None, 13, 13, 16)        0         
_________________________________________________________________
flatten_1 (Flatten)          (None, 2704)              0         
_________________________________________________________________
dense_1 (Dense)              (None, 10)                27050     
_________________________________________________________________
dense_2 (Dense)              (None, 1)                 11        
=================================================================
Total params: 35,813
Trainable params: 35,813
Non-trainable params: 0
_________________________________________________________________
# Recurrent Neural Network
from keras.utils import plot_model
from keras.models import Model
from keras.layers import Input
from keras.layers import Dense
from keras.layers.recurrent import LSTM
…
# interpretation layer
hidden1 = Dense(10, activation='relu')(merge)
# prediction output
output = Dense(1, activation='sigmoid')(hidden1)
model = Model(inputs=visible, outputs=output)
# summarize layers
print(model.summary())
# plot graph
plot_model(model, to_file='shared_input_layer.png')
____________________________________________________________________________________________________
Layer (type)                     Output Shape          Param #     Connected to
====================================================================================================
input_1 (InputLayer)             (None, 64, 64, 1)     0
____________________________________________________________________________________________________
conv2d_1 (Conv2D)                (None, 61, 61, 32)    544         input_1[0][0]
____________________________________________________________________________________________________
conv2d_2 (Conv2D)                (None, 57, 57, 16)    1040        input_1[0][0]
____________________________________________________________________________________________________
max_pooling2d_1 (MaxPooling2D)   (None, 30, 30, 32)    0           conv2d_1[0][0]
____________________________________________________________________________________________________
max_pooling2d_2 (MaxPooling2D)   (None, 28, 28, 16)    0           conv2d_2[0][0]
____________________________________________________________________________________________________
flatten_1 (Flatten)              (None, 28800)         0           max_pooling2d_1[0][0]
____________________________________________________________________________________________________
flatten_2 (Flatten)              (None, 12544)         0           max_pooling2d_2[0][0]
____________________________________________________________________________________________________
concatenate_1 (Concatenate)      (None, 41344)         0           flatten_1[0][0]
                                                                   flatten_2[0][0]
____________________________________________________________________________________________________
dense_1 (Dense)                  (None, 10)            413450      concatenate_1[0][0]
____________________________________________________________________________________________________
dense_2 (Dense)                  (None, 1)             11          dense_1[0][0]
====================================================================================================
Total params: 415,045
Trainable params: 415,045
Non-trainable params: 0
____________________________________________________________________________________________________
# Shared Feature Extraction Layer
from keras.utils import plot_model
from keras.models import Model
from keras.layers import Input
…
interp13 = Dense(10, activation='relu')(interp12)
# merge interpretation
merge = concatenate([interp1, interp13])
# output
output = Dense(1, activation='sigmoid')(merge)
model = Model(inputs=visible, outputs=output)
# summarize layers
print(model.summary())
# plot graph
plot_model(model, to_file='shared_feature_extractor.png')
____________________________________________________________________________________________________
Layer (type)                     Output Shape          Param #     Connected to
====================================================================================================
input_1 (InputLayer)             (None, 100, 1)        0
____________________________________________________________________________________________________
lstm_1 (LSTM)                    (None, 10)            480         input_1[0][0]
____________________________________________________________________________________________________
dense_2 (Dense)                  (None, 10)            110         lstm_1[0][0]
____________________________________________________________________________________________________
dense_3 (Dense)                  (None, 20)            220         dense_2[0][0]
____________________________________________________________________________________________________
dense_1 (Dense)                  (None, 10)            110         lstm_1[0][0]
____________________________________________________________________________________________________
dense_4 (Dense)                  (None, 10)            210         dense_3[0][0]
____________________________________________________________________________________________________
concatenate_1 (Concatenate)      (None, 20)            0           dense_1[0][0]
                                                                   dense_4[0][0]
____________________________________________________________________________________________________
dense_5 (Dense)                  (None, 1)             21          concatenate_1[0][0]
====================================================================================================
Total params: 1,151
Trainable params: 1,151
Non-trainable params: 0
____________________________________________________________________________________________________
model = Model(inputs=[visible1, visible2], outputs=output)
# Multiple Inputs
from keras.utils import plot_model
…
hidden1 = Dense(10, activation='relu')(merge)
hidden2 = Dense(10, activation='relu')(hidden1)
output = Dense(1, activation='sigmoid')(hidden2)
model = Model(inputs=[visible1, visible2], outputs=output)
# summarize layers
print(model.summary())
# plot graph
plot_model(model, to_file='multiple_inputs.png')
____________________________________________________________________________________________________
Layer (type)                     Output Shape          Param #     Connected to
====================================================================================================
input_1 (InputLayer)             (None, 64, 64, 1)     0
____________________________________________________________________________________________________
input_2 (InputLayer)             (None, 32, 32, 3)     0
____________________________________________________________________________________________________
conv2d_1 (Conv2D)                (None, 61, 61, 32)    544         input_1[0][0]
____________________________________________________________________________________________________
conv2d_3 (Conv2D)                (None, 29, 29, 32)    1568        input_2[0][0]
____________________________________________________________________________________________________
max_pooling2d_1 (MaxPooling2D)   (None, 30, 30, 32)    0           conv2d_1[0][0]
____________________________________________________________________________________________________
max_pooling2d_3 (MaxPooling2D)   (None, 14, 14, 32)    0           conv2d_3[0][0]
____________________________________________________________________________________________________
conv2d_2 (Conv2D)                (None, 27, 27, 16)    8208        max_pooling2d_1[0][0]
____________________________________________________________________________________________________
conv2d_4 (Conv2D)                (None, 11, 11, 16)    8208        max_pooling2d_3[0][0]
____________________________________________________________________________________________________
max_pooling2d_2 (MaxPooling2D)   (None, 13, 13, 16)    0           conv2d_2[0][0]
____________________________________________________________________________________________________
max_pooling2d_4 (MaxPooling2D)   (None, 5, 5, 16)      0           conv2d_4[0][0]
____________________________________________________________________________________________________
flatten_1 (Flatten)              (None, 2704)          0           max_pooling2d_2[0][0]
____________________________________________________________________________________________________
flatten_2 (Flatten)              (None, 400)           0           max_pooling2d_4[0][0]
____________________________________________________________________________________________________
concatenate_1 (Concatenate)      (None, 3104)          0           flatten_1[0][0]
                                                                   flatten_2[0][0]
____________________________________________________________________________________________________
dense_1 (Dense)                  (None, 10)            31050       concatenate_1[0][0]
____________________________________________________________________________________________________
dense_2 (Dense)                  (None, 10)            110         dense_1[0][0]
____________________________________________________________________________________________________
dense_3 (Dense)                  (None, 1)             11          dense_2[0][0]
====================================================================================================
Total params: 49,699
Trainable params: 49,699
Non-trainable params: 0
____________________________________________________________________________________________________
# Multiple Outputs
from keras.utils import plot_model
from keras.models import Model
from keras.layers import Input
…
output1 = Dense(1, activation='sigmoid')(class12)
# sequence output
output2 = TimeDistributed(Dense(1, activation='linear'))(extract)
# output
model = Model(inputs=visible, outputs=[output1, output2])
# summarize layers
print(model.summary())
# plot graph
plot_model(model, to_file='multiple_outputs.png')
____________________________________________________________________________________________________
Layer (type)                     Output Shape          Param #     Connected to
====================================================================================================
input_1 (InputLayer)             (None, 100, 1)        0
____________________________________________________________________________________________________
lstm_1 (LSTM)                    (None, 100, 10)       480         input_1[0][0]
____________________________________________________________________________________________________
lstm_2 (LSTM)                    (None, 10)            840         lstm_1[0][0]
____________________________________________________________________________________________________
dense_1 (Dense)                  (None, 10)            110         lstm_2[0][0]
____________________________________________________________________________________________________
dense_2 (Dense)                  (None, 1)             11          dense_1[0][0]
____________________________________________________________________________________________________
time_distributed_1 (TimeDistribu (None, 100, 1)        11          lstm_1[0][0]
====================================================================================================
Total params: 1,452
Trainable params: 1,452
Non-trainable params: 0
____________________________________________________________________________________________________

dense1 = Dense(32)(input)
...
# create layer
dense1 = Dense(32)
# connect layer to previous layer
dense1(input)
…
