…
 |-structured_data_block_1/dense_block_2/num_layers: 3
 |-structured_data_block_1/dense_block_2/units_0: 32
 |-structured_data_block_1/dense_block_2/units_1: 16
 |-structured_data_block_1/dense_block_2/units_2: 16
 |-structured_data_block_1/dense_block_2/use_batchnorm: False
Accuracy: 0.826
Model: "model"
_________________________________________________________________
Layer (type)                 Output Shape              Param #
=================================================================
input_1 (InputLayer)         [(None, 60)]              0
_________________________________________________________________
categorical_encoding (Catego (None, 60)                0
_________________________________________________________________
dense (Dense)                (None, 256)               15616
_________________________________________________________________
re_lu (ReLU)                 (None, 256)               0
_________________________________________________________________
dropout (Dropout)            (None, 256)               0
_________________________________________________________________
dense_1 (Dense)              (None, 512)               131584
_________________________________________________________________
re_lu_1 (ReLU)               (None, 512)               0
_________________________________________________________________
dropout_1 (Dropout)          (None, 512)               0
_________________________________________________________________
dense_2 (Dense)              (None, 1)                 513
_________________________________________________________________
classification_head_1 (Sigmo (None, 1)                 0
=================================================================
Total params: 147,713
Trainable params: 147,713
Non-trainable params: 0
_________________________________________________________________
# load the sonar dataset
from pandas import read_csv
from sklearn.model_selection import train_test_split
# load dataset
url = 'https://raw.githubusercontent.com/jbrownlee/Datasets/master/auto-insurance.csv'
…
|-structured_data_block_1/dense_block_2/num_layers: 2
|-structured_data_block_1/dense_block_2/units_0: 256
|-structured_data_block_1/dense_block_2/units_1: 64
|-structured_data_block_1/dense_block_2/units_2: 1024
|-structured_data_block_1/dense_block_2/use_batchnorm: True
MAE: 24.916
Model: "model"
_________________________________________________________________
Layer (type)                 Output Shape              Param #
=================================================================
input_1 (InputLayer)         [(None, 1)]               0
_________________________________________________________________
categorical_encoding (Catego (None, 1)                 0
_________________________________________________________________
dense (Dense)                (None, 64)                128
_________________________________________________________________
re_lu (ReLU)                 (None, 64)                0
_________________________________________________________________
dense_1 (Dense)              (None, 512)               33280
_________________________________________________________________
re_lu_1 (ReLU)               (None, 512)               0
_________________________________________________________________
dense_2 (Dense)              (None, 128)               65664
_________________________________________________________________
re_lu_2 (ReLU)               (None, 128)               0
_________________________________________________________________
regression_head_1 (Dense)    (None, 1)                 129
=================================================================
Total params: 99,201
Trainable params: 99,201
Non-trainable params: 0
_________________________________________________________________
'''
