…
	model.compile(loss=['binary_crossentropy', 'sparse_categorical_crossentropy'], optimizer=opt)
	return model

# define the discriminator model
model = define_discriminator()
# summarize the model
model.summary()
# plot the model
plot_model(model, to_file='discriminator_plot.png', show_shapes=True, show_layer_names=True)
__________________________________________________________________________________________________
Layer (type)                    Output Shape         Param #     Connected to
==================================================================================================
input_1 (InputLayer)            (None, 28, 28, 1)    0
__________________________________________________________________________________________________
conv2d_1 (Conv2D)               (None, 14, 14, 32)   320         input_1[0][0]
__________________________________________________________________________________________________
leaky_re_lu_1 (LeakyReLU)       (None, 14, 14, 32)   0           conv2d_1[0][0]
__________________________________________________________________________________________________
dropout_1 (Dropout)             (None, 14, 14, 32)   0           leaky_re_lu_1[0][0]
__________________________________________________________________________________________________
conv2d_2 (Conv2D)               (None, 14, 14, 64)   18496       dropout_1[0][0]
__________________________________________________________________________________________________
batch_normalization_1 (BatchNor (None, 14, 14, 64)   256         conv2d_2[0][0]
__________________________________________________________________________________________________
leaky_re_lu_2 (LeakyReLU)       (None, 14, 14, 64)   0           batch_normalization_1[0][0]
__________________________________________________________________________________________________
dropout_2 (Dropout)             (None, 14, 14, 64)   0           leaky_re_lu_2[0][0]
__________________________________________________________________________________________________
conv2d_3 (Conv2D)               (None, 7, 7, 128)    73856       dropout_2[0][0]
__________________________________________________________________________________________________
batch_normalization_2 (BatchNor (None, 7, 7, 128)    512         conv2d_3[0][0]
__________________________________________________________________________________________________
leaky_re_lu_3 (LeakyReLU)       (None, 7, 7, 128)    0           batch_normalization_2[0][0]
__________________________________________________________________________________________________
dropout_3 (Dropout)             (None, 7, 7, 128)    0           leaky_re_lu_3[0][0]
__________________________________________________________________________________________________
conv2d_4 (Conv2D)               (None, 7, 7, 256)    295168      dropout_3[0][0]
__________________________________________________________________________________________________
batch_normalization_3 (BatchNor (None, 7, 7, 256)    1024        conv2d_4[0][0]
__________________________________________________________________________________________________
leaky_re_lu_4 (LeakyReLU)       (None, 7, 7, 256)    0           batch_normalization_3[0][0]
__________________________________________________________________________________________________
dropout_4 (Dropout)             (None, 7, 7, 256)    0           leaky_re_lu_4[0][0]
__________________________________________________________________________________________________
flatten_1 (Flatten)             (None, 12544)        0           dropout_4[0][0]
__________________________________________________________________________________________________
dense_1 (Dense)                 (None, 1)            12545       flatten_1[0][0]
__________________________________________________________________________________________________
dense_2 (Dense)                 (None, 10)           125450      flatten_1[0][0]
==================================================================================================
Total params: 527,627
Trainable params: 526,731
Non-trainable params: 896
__________________________________________________________________________________________________

# label input
in_label = Input(shape=(1,))
# embedding for categorical input
li = Embedding(n_classes, 50)(in_label)
…
	model = Model([in_lat, in_label], out_layer)
	return model

# define the size of the latent space
latent_dim = 100
# define the generator model
model = define_generator(latent_dim)
# summarize the model
model.summary()
# plot the model
plot_model(model, to_file='generator_plot.png', show_shapes=True, show_layer_names=True)
__________________________________________________________________________________________________
Layer (type)                    Output Shape         Param #     Connected to
==================================================================================================
input_2 (InputLayer)            (None, 100)          0
__________________________________________________________________________________________________
input_1 (InputLayer)            (None, 1)            0
__________________________________________________________________________________________________
dense_2 (Dense)                 (None, 18816)        1900416     input_2[0][0]
__________________________________________________________________________________________________
embedding_1 (Embedding)         (None, 1, 50)        500         input_1[0][0]
__________________________________________________________________________________________________
activation_1 (Activation)       (None, 18816)        0           dense_2[0][0]
__________________________________________________________________________________________________
dense_1 (Dense)                 (None, 1, 49)        2499        embedding_1[0][0]
__________________________________________________________________________________________________
reshape_2 (Reshape)             (None, 7, 7, 384)    0           activation_1[0][0]
__________________________________________________________________________________________________
reshape_1 (Reshape)             (None, 7, 7, 1)      0           dense_1[0][0]
__________________________________________________________________________________________________
concatenate_1 (Concatenate)     (None, 7, 7, 385)    0           reshape_2[0][0]
                                                                 reshape_1[0][0]
__________________________________________________________________________________________________
conv2d_transpose_1 (Conv2DTrans (None, 14, 14, 192)  1848192     concatenate_1[0][0]
__________________________________________________________________________________________________
batch_normalization_1 (BatchNor (None, 14, 14, 192)  768         conv2d_transpose_1[0][0]
__________________________________________________________________________________________________
activation_2 (Activation)       (None, 14, 14, 192)  0           batch_normalization_1[0][0]
__________________________________________________________________________________________________
conv2d_transpose_2 (Conv2DTrans (None, 28, 28, 1)    4801        activation_2[0][0]
__________________________________________________________________________________________________
activation_3 (Activation)       (None, 28, 28, 1)    0           conv2d_transpose_2[0][0]
==================================================================================================
Total params: 3,757,176
Trainable params: 3,756,792
Non-trainable params: 384
__________________________________________________________________________________________________
# define the combined generator and discriminator model, for updating the generator
def define_gan(g_model, d_model):
…
