…
from keras.applications.vgg16 import preprocess_input
images = ...
prepared_images = preprocess_input(images)

# define a new model with random weights and 10 classes
new_input = Input(shape=(640, 480, 3))
model = VGG16(weights=None, input_tensor=new_input, classes=10)
# example of loading the vgg16 model
from keras.applications.vgg16 import VGG16
# load model
model = VGG16()
# summarize the model
model.summary()
_________________________________________________________________
Layer (type)                 Output Shape              Param #
=================================================================
input_1 (InputLayer)         (None, 224, 224, 3)       0
_________________________________________________________________
block1_conv1 (Conv2D)        (None, 224, 224, 64)      1792
_________________________________________________________________
block1_conv2 (Conv2D)        (None, 224, 224, 64)      36928
_________________________________________________________________
block1_pool (MaxPooling2D)   (None, 112, 112, 64)      0
_________________________________________________________________
block2_conv1 (Conv2D)        (None, 112, 112, 128)     73856
_________________________________________________________________
block2_conv2 (Conv2D)        (None, 112, 112, 128)     147584
_________________________________________________________________
block2_pool (MaxPooling2D)   (None, 56, 56, 128)       0
_________________________________________________________________
block3_conv1 (Conv2D)        (None, 56, 56, 256)       295168
_________________________________________________________________
block3_conv2 (Conv2D)        (None, 56, 56, 256)       590080
_________________________________________________________________
block3_conv3 (Conv2D)        (None, 56, 56, 256)       590080
_________________________________________________________________
block3_pool (MaxPooling2D)   (None, 28, 28, 256)       0
_________________________________________________________________
block4_conv1 (Conv2D)        (None, 28, 28, 512)       1180160
_________________________________________________________________
block4_conv2 (Conv2D)        (None, 28, 28, 512)       2359808
_________________________________________________________________
block4_conv3 (Conv2D)        (None, 28, 28, 512)       2359808
_________________________________________________________________
block4_pool (MaxPooling2D)   (None, 14, 14, 512)       0
_________________________________________________________________
block5_conv1 (Conv2D)        (None, 14, 14, 512)       2359808
_________________________________________________________________
block5_conv2 (Conv2D)        (None, 14, 14, 512)       2359808
_________________________________________________________________
block5_conv3 (Conv2D)        (None, 14, 14, 512)       2359808
_________________________________________________________________
block5_pool (MaxPooling2D)   (None, 7, 7, 512)         0
_________________________________________________________________
flatten (Flatten)            (None, 25088)             0
_________________________________________________________________
fc1 (Dense)                  (None, 4096)              102764544
_________________________________________________________________
fc2 (Dense)                  (None, 4096)              16781312
_________________________________________________________________
predictions (Dense)          (None, 1000)              4097000
=================================================================
Total params: 138,357,544
Trainable params: 138,357,544
Non-trainable params: 0
_________________________________________________________________
# example of loading the inception v3 model
from keras.applications.inception_v3 import InceptionV3
# load model
model = InceptionV3()
# summarize the model
model.summary()
# example of loading the resnet50 model
…
from keras.layers import Flatten
# load model without classifier layers
model = VGG16(include_top=False, input_shape=(300, 300, 3))
# add new classifier layers
flat1 = Flatten()(model.layers[-1].output)
class1 = Dense(1024, activation='relu')(flat1)
output = Dense(10, activation='softmax')(class1)
# define new model
model = Model(inputs=model.inputs, outputs=output)
# summarize
model.summary()
# ...
_________________________________________________________________
Layer (type)                 Output Shape              Param #
=================================================================
input_1 (InputLayer)         (None, 300, 300, 3)       0
_________________________________________________________________
block1_conv1 (Conv2D)        (None, 300, 300, 64)      1792
_________________________________________________________________
block1_conv2 (Conv2D)        (None, 300, 300, 64)      36928
_________________________________________________________________
block1_pool (MaxPooling2D)   (None, 150, 150, 64)      0
_________________________________________________________________
block2_conv1 (Conv2D)        (None, 150, 150, 128)     73856
_________________________________________________________________
block2_conv2 (Conv2D)        (None, 150, 150, 128)     147584
_________________________________________________________________
block2_pool (MaxPooling2D)   (None, 75, 75, 128)       0
_________________________________________________________________
block3_conv1 (Conv2D)        (None, 75, 75, 256)       295168
_________________________________________________________________
block3_conv2 (Conv2D)        (None, 75, 75, 256)       590080
_________________________________________________________________
block3_conv3 (Conv2D)        (None, 75, 75, 256)       590080
_________________________________________________________________
block3_pool (MaxPooling2D)   (None, 37, 37, 256)       0
_________________________________________________________________
block4_conv1 (Conv2D)        (None, 37, 37, 512)       1180160
_________________________________________________________________
block4_conv2 (Conv2D)        (None, 37, 37, 512)       2359808
_________________________________________________________________
block4_conv3 (Conv2D)        (None, 37, 37, 512)       2359808
_________________________________________________________________
block4_pool (MaxPooling2D)   (None, 18, 18, 512)       0
_________________________________________________________________
block5_conv1 (Conv2D)        (None, 18, 18, 512)       2359808
_________________________________________________________________
block5_conv2 (Conv2D)        (None, 18, 18, 512)       2359808
_________________________________________________________________
block5_conv3 (Conv2D)        (None, 18, 18, 512)       2359808
_________________________________________________________________
block5_pool (MaxPooling2D)   (None, 9, 9, 512)         0
_________________________________________________________________
flatten_1 (Flatten)          (None, 41472)             0
_________________________________________________________________
dense_1 (Dense)              (None, 1024)              42468352
_________________________________________________________________
dense_2 (Dense)              (None, 10)                10250
=================================================================
Total params: 57,193,290
Trainable params: 57,193,290
Non-trainable params: 0
_________________________________________________________________
# load model without classifier layers
model = VGG16(include_top=False, input_shape=(300, 300, 3))
# mark loaded layers as not trainable
for layer in model.layers:
	layer.trainable = False
...
…
